…
    visualization: ./results/EFNet_test/visualization
  ]
  val:[
    save_img: True
    grids: None
    crop_size: None
    rgb2bgr: False
  ]
  dist_params:[
    backend: nccl
    port: 29500
  ]
  is_train: False
  dist: False
  rank: 0
  world_size: 1

2024-11-23 03:04:31,323 INFO: Dataset ConcatDataset - gopro-bestmodel-test is created.
2024-11-23 03:04:31,323 INFO: Number of test images in gopro-bestmodel-test: 98
2024-11-23 03:04:32,676 INFO: Network: EFNet, with parameters: 8,466,445
2024-11-23 03:04:32,677 INFO: EFNet(
  (down_path_1): ModuleList(
    (0): UNetConvBlock(
      (identity): Conv2d(64, 64, kernel_size=(1, 1), stride=(1, 1))
      (conv_1): Conv2d(64, 64, kernel_size=(3, 3), stride=(1, 1), padding=(1, 1))
      (relu_1): LeakyReLU(negative_slope=0.2)
      (conv_2): Conv2d(64, 64, kernel_size=(3, 3), stride=(1, 1), padding=(1, 1))
      (relu_2): LeakyReLU(negative_slope=0.2)
      (downsample): Conv2d(64, 64, kernel_size=(4, 4), stride=(2, 2), padding=(1, 1), bias=False)
      (image_event_transformer): EventImage_ChannelAttentionTransformerBlock(
        (norm1_image): LayerNorm(
          (body): WithBias_LayerNorm()
        )
        (norm1_event): LayerNorm(
          (body): WithBias_LayerNorm()
        )
        (attn): Mutual_Attention(
          (q): Conv2d(64, 64, kernel_size=(1, 1), stride=(1, 1), bias=False)
          (k): Conv2d(64, 64, kernel_size=(1, 1), stride=(1, 1), bias=False)
          (v): Conv2d(64, 64, kernel_size=(1, 1), stride=(1, 1), bias=False)
          (project_out): Conv2d(64, 64, kernel_size=(1, 1), stride=(1, 1), bias=False)
        )
        (norm2): LayerNorm((64,), eps=1e-05, elementwise_affine=True)
        (ffn): Mlp(
          (fc1): Linear(in_features=64, out_features=256, bias=True)
          (act): GELU()
          (fc2): Linear(in_features=256, out_features=64, bias=True)
          (drop): Dropout(p=0.0, inplace=False)
        )
      )
    )
    (1): UNetConvBlock(
      (identity): Conv2d(64, 128, kernel_size=(1, 1), stride=(1, 1))
      (conv_1): Conv2d(64, 128, kernel_size=(3, 3), stride=(1, 1), padding=(1, 1))
      (relu_1): LeakyReLU(negative_slope=0.2)
      (conv_2): Conv2d(128, 128, kernel_size=(3, 3), stride=(1, 1), padding=(1, 1))
      (relu_2): LeakyReLU(negative_slope=0.2)
      (downsample): Conv2d(128, 128, kernel_size=(4, 4), stride=(2, 2), padding=(1, 1), bias=False)
      (image_event_transformer): EventImage_ChannelAttentionTransformerBlock(
        (norm1_image): LayerNorm(
          (body): WithBias_LayerNorm()
        )
        (norm1_event): LayerNorm(
          (body): WithBias_LayerNorm()
        )
        (attn): Mutual_Attention(
          (q): Conv2d(128, 128, kernel_size=(1, 1), stride=(1, 1), bias=False)
          (k): Conv2d(128, 128, kernel_size=(1, 1), stride=(1, 1), bias=False)
          (v): Conv2d(128, 128, kernel_size=(1, 1), stride=(1, 1), bias=False)
          (project_out): Conv2d(128, 128, kernel_size=(1, 1), stride=(1, 1), bias=False)
        )
        (norm2): LayerNorm((128,), eps=1e-05, elementwise_affine=True)
        (ffn): Mlp(
          (fc1): Linear(in_features=128, out_features=512, bias=True)
          (act): GELU()
          (fc2): Linear(in_features=512, out_features=128, bias=True)
          (drop): Dropout(p=0.0, inplace=False)
        )
      )
    )
    (2): UNetConvBlock(
      (identity): Conv2d(128, 256, kernel_size=(1, 1), stride=(1, 1))
      (conv_1): Conv2d(128, 256, kernel_size=(3, 3), stride=(1, 1), padding=(1, 1))
      (relu_1): LeakyReLU(negative_slope=0.2)
      (conv_2): Conv2d(256, 256, kernel_size=(3, 3), stride=(1, 1), padding=(1, 1))
      (relu_2): LeakyReLU(negative_slope=0.2)
      (image_event_transformer): EventImage_ChannelAttentionTransformerBlock(
        (norm1_image): LayerNorm(
          (body): WithBias_LayerNorm()
        )
        (norm1_event): LayerNorm(
          (body): WithBias_LayerNorm()
        )
        (attn): Mutual_Attention(
          (q): Conv2d(256, 256, kernel_size=(1, 1), stride=(1, 1), bias=False)
          (k): Conv2d(256, 256, kernel_size=(1, 1), stride=(1, 1), bias=False)
          (v): Conv2d(256, 256, kernel_size=(1, 1), stride=(1, 1), bias=False)
          (project_out): Conv2d(256, 256, kernel_size=(1, 1), stride=(1, 1), bias=False)
        )
        (norm2): LayerNorm((256,), eps=1e-05, elementwise_affine=True)
        (ffn): Mlp(
          (fc1): Linear(in_features=256, out_features=1024, bias=True)
          (act): GELU()
          (fc2): Linear(in_features=1024, out_features=256, bias=True)
          (drop): Dropout(p=0.0, inplace=False)
        )
      )
    )
  )
  (down_path_2): ModuleList(
    (0): UNetConvBlock(
      (identity): Conv2d(64, 64, kernel_size=(1, 1), stride=(1, 1))
      (conv_1): Conv2d(64, 64, kernel_size=(3, 3), stride=(1, 1), padding=(1, 1))
      (relu_1): LeakyReLU(negative_slope=0.2)
      (conv_2): Conv2d(64, 64, kernel_size=(3, 3), stride=(1, 1), padding=(1, 1))
      (relu_2): LeakyReLU(negative_slope=0.2)
      (emgc_enc): Conv2d(64, 64, kernel_size=(3, 3), stride=(1, 1), padding=(1, 1))
      (emgc_dec): Conv2d(64, 64, kernel_size=(3, 3), stride=(1, 1), padding=(1, 1))
      (emgc_enc_mask): Conv2d(64, 64, kernel_size=(3, 3), stride=(1, 1), padding=(1, 1))
      (emgc_dec_mask): Conv2d(64, 64, kernel_size=(3, 3), stride=(1, 1), padding=(1, 1))
      (downsample): Conv2d(64, 64, kernel_size=(4, 4), stride=(2, 2), padding=(1, 1), bias=False)
    )
    (1): UNetConvBlock(
      (identity): Conv2d(64, 128, kernel_size=(1, 1), stride=(1, 1))
      (conv_1): Conv2d(64, 128, kernel_size=(3, 3), stride=(1, 1), padding=(1, 1))
      (relu_1): LeakyReLU(negative_slope=0.2)
      (conv_2): Conv2d(128, 128, kernel_size=(3, 3), stride=(1, 1), padding=(1, 1))
      (relu_2): LeakyReLU(negative_slope=0.2)
      (emgc_enc): Conv2d(128, 128, kernel_size=(3, 3), stride=(1, 1), padding=(1, 1))
      (emgc_dec): Conv2d(128, 128, kernel_size=(3, 3), stride=(1, 1), padding=(1, 1))
      (emgc_enc_mask): Conv2d(128, 128, kernel_size=(3, 3), stride=(1, 1), padding=(1, 1))
      (emgc_dec_mask): Conv2d(128, 128, kernel_size=(3, 3), stride=(1, 1), padding=(1, 1))
      (downsample): Conv2d(128, 128, kernel_size=(4, 4), stride=(2, 2), padding=(1, 1), bias=False)
    )
    (2): UNetConvBlock(
      (identity): Conv2d(128, 256, kernel_size=(1, 1), stride=(1, 1))
      (conv_1): Conv2d(128, 256, kernel_size=(3, 3), stride=(1, 1), padding=(1, 1))
      (relu_1): LeakyReLU(negative_slope=0.2)
      (conv_2): Conv2d(256, 256, kernel_size=(3, 3), stride=(1, 1), padding=(1, 1))
      (relu_2): LeakyReLU(negative_slope=0.2)
    )
  )
  (conv_01): Conv2d(3, 64, kernel_size=(3, 3), stride=(1, 1), padding=(1, 1))
  (conv_02): Conv2d(3, 64, kernel_size=(3, 3), stride=(1, 1), padding=(1, 1))
  (down_path_ev): ModuleList(
    (0): UNetEVConvBlock(
      (identity): Conv2d(64, 64, kernel_size=(1, 1), stride=(1, 1))
      (conv_1): Conv2d(64, 64, kernel_size=(3, 3), stride=(1, 1), padding=(1, 1))
      (relu_1): LeakyReLU(negative_slope=0.2)
      (conv_2): Conv2d(64, 64, kernel_size=(3, 3), stride=(1, 1), padding=(1, 1))
      (relu_2): LeakyReLU(negative_slope=0.2)
      (conv_before_merge): Conv2d(64, 64, kernel_size=(1, 1), stride=(1, 1))
      (downsample): Conv2d(64, 64, kernel_size=(4, 4), stride=(2, 2), padding=(1, 1), bias=False)
    )
    (1): UNetEVConvBlock(
      (identity): Conv2d(64, 128, kernel_size=(1, 1), stride=(1, 1))
      (conv_1): Conv2d(64, 128, kernel_size=(3, 3), stride=(1, 1), padding=(1, 1))
      (relu_1): LeakyReLU(negative_slope=0.2)
      (conv_2): Conv2d(128, 128, kernel_size=(3, 3), stride=(1, 1), padding=(1, 1))
      (relu_2): LeakyReLU(negative_slope=0.2)
      (conv_before_merge): Conv2d(128, 128, kernel_size=(1, 1), stride=(1, 1))
      (downsample): Conv2d(128, 128, kernel_size=(4, 4), stride=(2, 2), padding=(1, 1), bias=False)
    )
    (2): UNetEVConvBlock(
      (identity): Conv2d(128, 256, kernel_size=(1, 1), stride=(1, 1))
      (conv_1): Conv2d(128, 256, kernel_size=(3, 3), stride=(1, 1), padding=(1, 1))
      (relu_1): LeakyReLU(negative_slope=0.2)
      (conv_2): Conv2d(256, 256, kernel_size=(3, 3), stride=(1, 1), padding=(1, 1))
      (relu_2): LeakyReLU(negative_slope=0.2)
      (conv_before_merge): Conv2d(256, 256, kernel_size=(1, 1), stride=(1, 1))
    )
  )
  (conv_ev1): Conv2d(6, 64, kernel_size=(3, 3), stride=(1, 1), padding=(1, 1))
  (up_path_1): ModuleList(
    (0): UNetUpBlock(
      (up): ConvTranspose2d(256, 128, kernel_size=(2, 2), stride=(2, 2))
      (conv_block): UNetConvBlock(
        (identity): Conv2d(256, 128, kernel_size=(1, 1), stride=(1, 1))
        (conv_1): Conv2d(256, 128, kernel_size=(3, 3), stride=(1, 1), padding=(1, 1))
        (relu_1): LeakyReLU(negative_slope=0.2)
        (conv_2): Conv2d(128, 128, kernel_size=(3, 3), stride=(1, 1), padding=(1, 1))
        (relu_2): LeakyReLU(negative_slope=0.2)
      )
    )
    (1): UNetUpBlock(
      (up): ConvTranspose2d(128, 64, kernel_size=(2, 2), stride=(2, 2))
      (conv_block): UNetConvBlock(
        (identity): Conv2d(128, 64, kernel_size=(1, 1), stride=(1, 1))
        (conv_1): Conv2d(128, 64, kernel_size=(3, 3), stride=(1, 1), padding=(1, 1))
        (relu_1): LeakyReLU(negative_slope=0.2)
        (conv_2): Conv2d(64, 64, kernel_size=(3, 3), stride=(1, 1), padding=(1, 1))
        (relu_2): LeakyReLU(negative_slope=0.2)
      )
    )
  )
  (up_path_2): ModuleList(
    (0): UNetUpBlock(
      (up): ConvTranspose2d(256, 128, kernel_size=(2, 2), stride=(2, 2))
      (conv_block): UNetConvBlock(
        (identity): Conv2d(256, 128, kernel_size=(1, 1), stride=(1, 1))
        (conv_1): Conv2d(256, 128, kernel_size=(3, 3), stride=(1, 1), padding=(1, 1))
        (relu_1): LeakyReLU(negative_slope=0.2)
        (conv_2): Conv2d(128, 128, kernel_size=(3, 3), stride=(1, 1), padding=(1, 1))
        (relu_2): LeakyReLU(negative_slope=0.2)
      )
    )
    (1): UNetUpBlock(
      (up): ConvTranspose2d(128, 64, kernel_size=(2, 2), stride=(2, 2))
      (conv_block): UNetConvBlock(
        (identity): Conv2d(128, 64, kernel_size=(1, 1), stride=(1, 1))
        (conv_1): Conv2d(128, 64, kernel_size=(3, 3), stride=(1, 1), padding=(1, 1))
        (relu_1): LeakyReLU(negative_slope=0.2)
        (conv_2): Conv2d(64, 64, kernel_size=(3, 3), stride=(1, 1), padding=(1, 1))
        (relu_2): LeakyReLU(negative_slope=0.2)
      )
    )
  )
  (skip_conv_1): ModuleList(
    (0): Conv2d(128, 128, kernel_size=(3, 3), stride=(1, 1), padding=(1, 1))
    (1): Conv2d(64, 64, kernel_size=(3, 3), stride=(1, 1), padding=(1, 1))
  )
  (skip_conv_2): ModuleList(
    (0): Conv2d(128, 128, kernel_size=(3, 3), stride=(1, 1), padding=(1, 1))
    (1): Conv2d(64, 64, kernel_size=(3, 3), stride=(1, 1), padding=(1, 1))
  )
  (sam12): SAM(
    (conv1): Conv2d(64, 64, kernel_size=(3, 3), stride=(1, 1), padding=(1, 1))
    (conv2): Conv2d(64, 3, kernel_size=(3, 3), stride=(1, 1), padding=(1, 1))
    (conv3): Conv2d(3, 64, kernel_size=(3, 3), stride=(1, 1), padding=(1, 1))
  )
  (cat12): Conv2d(128, 64, kernel_size=(1, 1), stride=(1, 1))
  (last): Conv2d(64, 3, kernel_size=(3, 3), stride=(1, 1), padding=(1, 1))
)
2024-11-23 03:04:32,677 INFO: Loading EFNet model from ./experiments/pretrained_models/net_g_latest_GoPro.pth.
2024-11-23 03:04:32,717 INFO: Model [TestImageEventRestorationModel] is created.
2024-11-23 03:04:32,718 INFO: Testing gopro-bestmodel-test...
